assets/robots/leap_hand/neural/sc.pth (torch, 618280 bytes, 10 tensors)

module.layer1.linear.weight f4 [256, 63]
000000 cc 3e 18 3b c9 99 0c bc 88 d6 57 bc 0c 13 31 bc
       0.002323079 -0.008581587 -0.013173707 -0.010807764
000010 03 74 81 bc fa 4a 4c 3b c1 84 be 3c 0b 2a 62 bc
       -0.015802389 0.003117262 0.023256661 -0.013803969
000020 89 0c de bc d4 28 a0 bb ca aa 89 bc 99 93 b7 bc
       -0.027105587 -0.0048876796 -0.016805071 -0.022409247
000030 bc 23 be bb bc 1c e1 3b 55 30 2f 3c d0 34 46 bc
       -0.0058025997 0.0068698805 0.010692676 -0.012097552
000040 7d 8c 3c 3c 96 4f 84 bc b1 d8 96 bb 6e 0b 84 bc
       0.011508104 -0.01615123 -0.0046034683 -0.016118731
000050 69 20 9b bc 68 dc ff bc b0 f2 58 3b 2a 08 e0 bb
       -0.018936353 -0.031233028 0.0033103637 -0.0068369107
000060 b6 e8 95 bc 87 30 9a 3c 21 0b c7 3a 94 28 32 bc
       -0.018299442 0.018821968 0.0015185812 -0.010873932
000070 c2 b6 ae 3c 5d 02 25 3b dc 1f e7 bb d0 94 d5 bc
       0.02132738 0.002517841 -0.0070533585 -0.026071936
000080 d4 86 4a bc 9d 71 16 bc bb fa d4 bb cb 87 80 bc
       -0.012361247 -0.009182361 -0.006499616 -0.015689751
000090 1b d0 93 bc a4 f6 8b b9 90 95 49 bb 7e 4f 8b 3c
       -0.018043568 -0.00026695908 -0.0030759312 0.017005678
0000a0 6f 0d 87 bb 8a f0 7f 3c 60 9b 5d bc 84 de 09 bd
       -0.0041214745 0.015621314 -0.013525814 -0.033659473
0000b0 e3 f2 9c ba 1f 0c 81 3c 51 83 ed 3a f7 42 fe 3b
       -0.0011974241 0.01575285 0.00181208 0.0077594477
0000c0 ad f3 8a bc e9 fc 58 bc 4e 2c 4c 3b 8a 92 68 bc
       -0.016961897 -0.013243892 0.0031154337 -0.014195094
0000d0 33 68 0a bb dc 6e 0c bc e6 15 d6 bb 99 6b 0b 3c
       -0.0021119236 -0.008571353 -0.006533372 0.00850954
0000e0 68 40 b9 bc 44 9c 19 3b c1 7d 36 3c 52 db 14 3c
       -0.02261372 0.002343909 0.0111383805 0.009085493
0000f0 4b 7a 70 3b 36 49 58 39 e2 73 26 3c d4 ad 42 3c
       0.0036693986 0.00020626638 0.010159465 0.011882264
000100 73 82 90 3c dc 9a 58 3c b6 97 e5 3b a5 40 8d 3c
       0.017640328 0.013220515 0.0070066107 0.017242739
000110 3d 94 8d 3c 0f 72 4a bc 1c d6 f6 3b 3e 94 bb 3c
       0.0172826 -0.012356295 0.007532848 0.022897836
000120 1e 5b 50 3c f9 ec 3a 3c 93 aa db 3c c5 c3 10 3c
       0.0127170365 0.011409038 0.026814735 0.008835738
000130 4f 24 dc 3c a4 e2 f4 bb 04 36 45 bc bd d1 83 3c
       0.026872782 -0.0074733067 -0.012036804 0.016091222
000140 c9 a0 d1 bb c8 18 c2 3b 4e 4b ec ba f1 45 9f 3c
       -0.006397341 0.0059233643 -0.0018027814 0.01944253
000150 68 19 3f bb 69 47 54 b9 93 ba 6e 3c f0 0e a0 3c
       -0.002915943 -0.00020244498 0.01457085 0.019538373
000160 c8 78 79 bc 49 5b 8a 3c 6d f0 dc bb f4 48 88 bc
       -0.01522655 0.016889231 -0.006742528 -0.01663635
000170 46 24 e9 3a ac 2e f6 b9 11 7e 46 3c 7d 5f 5a 3c
       0.00177873 -0.0004695555 0.0121150175 0.01332843
000180 b4 a4 6a 3c 7a 22 c6 bb c6 b4 bb 3b 95 ef 72 bc
       0.014321495 -0.0060465904 0.005728337 -0.014827629
000190 bc 37 9a 3b 07 e1 3c bb 5b ad 00 bd f1 b4 1d 3c
       0.004706351 -0.002882065 -0.031415325 0.009625659
0001a0 c6 6e 87 bc 89 ac d7 3c 5d 11 bb bb c9 dc 29 3c
       -0.016532313 0.026327388 -0.005708857 0.010367581
0001b0 d7 06 6e 3a b5 4f 91 bb 5f 70 e2 bb 03 8f 1c bb
       0.00090799987 -0.0044345506 -0.0069103683 -0.0023888953
0001c0 b1 d1 e5 bb 2d 3b a5 3c 82 48 13 3c dd 35 63 bc
       -0.0070135226 0.020169819 0.008989455 -0.0138678225
0001d0 cb 00 bd bb 43 1b e9 bb 3f 0a 8d bb 3f 32 a2 3c
       -0.005767917 -0.0071138456 -0.0043042 0.01979935
0001e0 05 fa 10 bc 89 af 44 3c c8 4f 7e bc 14 8e d7 3c
       -0.008848672 0.0120047415 -0.015521951 0.026312865
0001f0 eb bf 98 3c b0 4a 1f bb 42 a8 78 3b d0 a4 50 bc
       0.018646201 -0.0024305992 0.0037942086 -0.012734607
000200 51 93 9b bc 3f 00 b1 bc 79 16 81 3a 7b 3c 60 ba
       -0.018991144 -0.021606563 0.0009848616 -0.0008553934
000210 92 e0 af ba 04 09 00 bb 6f ae 79 bc 3a 80 c4 bc
       -0.0013418368 -0.0019536624 -0.015239342 -0.023986924
000220 88 b2 c0 ba 5b e8 22 3c ea 01 49 bc ff f8 74 bc
       -0.0014701644 0.009943093 -0.012268523 -0.014951943
000230 88 d6 22 bc 81 a1 a0 bc 5f e2 3f bc 39 12 57 bb
       -0.009938844 -0.019608261 -0.011711686 -0.0032817258
000240 55 1b 81 bc a2 8c 17 bb 4f bf 7d bc cc f0 49 3a
       -0.015760103 -0.0023124595 -0.015487506 0.0007703423
000250 7c cc 84 bc 17 a3 08 3b 62 5a d3 3b ec e8 58 3d
       -0.016210787 0.0020849162 0.0064499835 0.052956507
000260 29 4e b7 bc af 2e 67 bc f7 f8 0f 3c 39 07 c0 bc
       -0.022376137 -0.014110251 0.008787385 -0.023440944
000270 b4 5a 6c bc 78 23 20 3c a0 64 8b bc 3f ee 60 bc
       -0.014425922 0.009774081 -0.017015755 -0.013728677
000280 12 50 36 ba e1 36 0e bc 76 41 45 3c b4 9c 56 bb
       -0.00069546804 -0.008680076 0.012039533 -0.003274721
000290 2a 87 c3 bc 87 a2 ad 3c 0c ca 30 bc 70 5d 70 bc
       -0.023868162 0.021195663 -0.010790359 -0.014670715
0002a0 35 db 37 3c 24 58 84 3c 75 db a3 bb 4f d5 48 bc
       0.011221697 0.01615531 -0.0050005266 -0.012257888
0002b0 f6 4d 90 3c 5c 6d 63 bc 56 f0 49 ba 34 0e f7 3b
       0.0176153 -0.013881054 -0.00077033543 0.007539535
0002c0 49 e0 6b 38 86 f1 48 3c ec 9f b6 bc 05 86 1d bc
       5.6237248e-05 0.012264615 -0.022293054 -0.009614472
0002d0 5d 19 b3 bb e3 3b 7a ba 98 fd c0 bc cc ce 8b 3c
       -0.00546567 -0.0009545667 -0.023558423 0.017066382
0002e0 78 af ad bc 72 66 33 ba cb 62 8b 3c c1 ea 64 bc
       -0.021201834 -0.00068435736 0.017014882 -0.013971985
0002f0 c7 ae 48 bb 09 33 ef bb 07 e4 c5 bc 31 2f d4 bb
       -0.0030621754 -0.007299785 -0.024156583 -0.006475352
000300 e7 af ba bc 20 61 be bc 51 ff 41 bc cb a5 77 bc
       -0.022788955 -0.023239672 -0.011840657 -0.015115212
000310 01 e9 ad bc c3 6f 80 bb 8d 6c 26 bc a4 cc 43 bc
       -0.021229269 -0.003919573 -0.010157716 -0.011950646
000320 a0 46 63 bb 45 6d bd 3c d6 af 91 bc 2e f0 d8 bb
       -0.0034679547 0.023123393 -0.01778404 -0.0066204285
000330 81 d1 87 3c b8 62 7b bc d8 17 07 3c 23 d1 c7 bc
       0.016579391 -0.015343361 0.008245431 -0.024391716
000340 64 51 ab 39 db b7 88 bc ef 2f 5a bc fa 39 94 bc
       0.00032676302 -0.016689232 -0.013317092 -0.018094052
000350 97 6c a7 bc d3 a9 1d 3c 78 c4 c4 bc a7 57 01 bc
       -0.020437522 0.009623009 -0.024019465 -0.007894433
000360 5b ad 4d bb 81 3e 6b bc af f5 09 3c 67 6a 6f bb
       -0.0031383845 -0.014358164 0.008420392 -0.0036531927
000370 39 8a 1f 3d 0f d8 0c bc 20 15 59 bc 0d 41 71 3c
       0.03895018 -0.008596434 -0.0132496655 0.014724982
000380 92 31 8f bc a6 64 47 3b 1e 33 67 3c 7b 3c 6d 3b
       -0.017479692 0.0030424981 0.014111308 0.003619938
000390 8b 0f d4 39 87 24 c9 3c 4a 86 87 bc b4 68 67 bc
       0.0004044737 0.02455355 -0.016543526 -0.014124084
0003a0 2a a7 76 3c 08 4e f0 bc 9e 04 c4 bc 16 f4 05 3b
       0.015054503 -0.029334083 -0.023927983 0.0020439676
0003b0 f6 8a 95 bc 49 e2 31 bc 83 0e 3d 3b d2 02 11 bb
       -0.018254738 -0.010857173 0.002884776 -0.0022126925
0003c0 76 a5 1d bd 18 58 6a bc 46 5e 01 bc c1 59 0c bc
       -0.038487874 -0.01430323 -0.007896012 -0.008566321
0003d0 48 3f 54 bb 33 53 d5 bb 96 ad 2b bc 5c f2 26 bc
       -0.0032386351 -0.0065101623 -0.010478398 -0.010189619
0003e0 4c 2c f1 3b 75 76 5b 3c 25 5b 98 bc f8 1b 3f 3c
       0.007360017 0.013394942 -0.018598149 0.011664383
0003f0 b4 25 4e 3c 80 11 b4 39 60 43 11 3c 56 ab a6 3c
       0.012582231 0.00034345314 0.008866161 0.020345371

module.layer1.linear.bias f4 [256]
000000 43 a6 6e 3c 84 36 a9 bc 05 50 83 bd 10 e3 8e bd
       0.014566007 -0.020655878 -0.06411747 -0.069769025
000010 9f 34 b5 3d 31 d3 e3 bd cd 99 22 3c f8 a0 51 bd
       0.08847927 -0.11124266 0.009924364 -0.051178902
000020 a0 40 84 bc 5f ea 9a 3d ce 44 b1 bd b2 cc d1 3d
       -0.016144097 0.07564234 -0.086557016 0.10244121
000030 43 04 da bd 2a 92 d6 bd 86 c8 20 bd f8 81 d7 3c
       -0.10645344 -0.10477097 -0.039253734 0.026307091
000040 59 26 b9 ba f9 08 c6 bc 9a 9b 09 bd 85 58 e1 3d
       -0.0014125808 -0.0241742 -0.03359566 0.11003212
000050 cc 8d a4 3d 6d 23 33 3d 7f f7 96 3c 31 2d f8 bc
       0.08034858 0.043734957 0.018428562 -0.030294986
000060 7e ac ed bd 10 8c 5d 3c 62 67 8f 3d 2a 91 22 3d
       -0.11605166 0.013522163 0.070021406 0.03968922
000070 ce 64 97 3d 29 74 b1 bd e2 71 da 3d 38 c4 db 3d
       0.07392274 -0.08664734 0.10666253 0.10730785
000080 90 29 a7 bd 7b 12 9d bd ea a0 a4 3d 48 33 bd bd
       -0.08162224 -0.076695405 0.080385044 -0.09238297
000090 cc 89 96 3d 60 46 34 bd d5 98 9b bd 4d 0a 05 3d
       0.073505014 -0.044012427 -0.0759751 0.032480527
0000a0 f3 c1 80 bd 55 36 89 3d 49 a9 5c bc 37 38 03 3d
       -0.06286993 0.06699816 -0.013468095 0.032036033
0000b0 57 09 a4 3d f5 33 f8 bc 3f ca 93 3d 36 d6 8a bd
       0.08009594 -0.030298213 0.0721631 -0.06779139
0000c0 6c 3c de 3d 74 4c d6 bd 23 cf f6 3c 7c b3 a5 3d
       0.10851368 -0.10463801 0.030128067 0.080908746
0000d0 65 81 cb bd 8e 97 0a bd 0b 02 ad 3c 3a 7f f2 bd
       -0.099367894 -0.03383594 0.021119138 -0.11840673
0000e0 7a 18 f7 3d b5 3e df 3c 2e 10 b6 3d f0 88 b6 bc
       0.120652154 0.02725158 0.08889805 -0.022282094
0000f0 86 c5 e4 bd 86 8f 91 bc e9 e9 92 bd bf c1 88 bd
       -0.11170487 -0.017768633 -0.07173521 -0.06677579
000100 7e fc ba bd 24 76 ef bd ad d8 f3 3c 99 41 1e 3c
       -0.0913019 -0.116924554 0.029766405 0.009659194
000110 94 e8 5b 3d 7a fe af bd eb 86 b5 bd c1 84 a5 3a
       0.0536886 -0.085934594 -0.08863624 0.0012628065
000120 a1 85 ae bd c0 91 84 bc 73 32 1b 3d 55 3e ac 3d
       -0.085215814 -0.01618278 0.03788991 0.084103264
000130 b7 b1 01 3b 8e 88 c3 bd c0 8c 9f 3d f3 e1 e4 bc
       0.0019789764 -0.0954753 0.07790518 -0.027939772
000140 da 9a eb bd 98 b2 e7 3d 97 ba 94 bd da f7 61 ba
       -0.11504145 0.11313361 -0.07262152 -0.00086200016
000150 40 48 ce bc 3f 4f e8 bd 10 99 a2 3d 76 a8 c5 3d
       -0.025180936 -0.1134324 0.079393506 0.09651272
000160 79 d8 dd bd e5 1f af 3d 2d 42 b2 bd 0e 13 ae bd
       -0.108323045 0.08551005 -0.08704028 -0.08499728
000170 ea cc ae bb da 2c 08 3d 9f b8 ae 3d 6b 00 c3 3c
       -0.0053344863 0.0332459 0.085313074 0.02380391
000180 83 bd 69 bc 6a f7 84 bc f6 80 e5 bd f0 12 ac 3d
       -0.0142663745 -0.016231257 -0.11206238 0.084020495
000190 bc fc ec 3d b3 c3 cb 3c 68 48 9a 3d e6 75 70 3c
       0.11571643 0.02487359 0.07533342 0.014676547
0001a0 65 fd 1a bc 59 d8 a9 bc e8 f2 f1 3d 8a 81 5f 3c
       -0.009459828 -0.020733045 0.11813909 0.013641724
0001b0 fd f0 10 3d bd 41 11 bb 43 f2 c0 3d c9 a0 f7 bd
       0.035386074 -0.0022164427 0.09421208 -0.12091214
0001c0 70 03 d8 3d 92 8e bd 3d 7e 9b 64 3b 88 97 3b 3c
       0.10547531 0.09255709 0.003488272 0.011449702
0001d0 22 12 ee 3d 18 3a f8 bd 31 fb 9c bd 7a fe e8 bd
       0.11624552 -0.121204555 -0.076650985 -0.113766626
0001e0 49 f5 bc bd 49 25 e2 3c c0 8c a6 3d 01 4a a9 3d
       -0.09226472 0.02760567 0.08132315 0.08266068
0001f0 43 00 eb bd 64 d0 90 bd e4 b6 e4 bd b7 70 a3 bd
       -0.11474659 -0.07070997 -0.11167696 -0.07980483
000200 3a e1 3b 3b 54 0c d0 3d 8e e5 55 3c 1e 94 e0 3d
       0.002866818 0.101586014 0.013055218 0.10965751
000210 45 90 c4 bc ee 3a ae 3d 35 be ac 3d 71 7a 0d 3d
       -0.023994574 0.08507334 0.084347166 0.034540597
000220 18 fc 87 bd 01 90 8e bd f4 cd 30 3c 77 a0 ad 3d
       -0.0663988 -0.0696106 0.010791291 0.08477872
000230 f6 f9 45 3b 22 44 f4 bd 20 7a 96 3c 6e 27 a7 bd
       0.0030208803 -0.11927058 0.01836878 -0.081618175
000240 7a 2c d5 bc 6c 63 e2 bc 6b a4 eb bc 43 6f c1 3d
       -0.026022185 -0.027635299 -0.028764924 0.094450496
000250 82 7f 92 bd 93 70 d2 3c 8f 23 97 3c 5a 99 ca bc
       -0.071532264 0.025688445 0.018449573 -0.024731327
000260 32 51 8c bc f4 3e c6 bc 22 a7 a7 3d e2 9f 9c bd
       -0.01712856 -0.02419994 0.08186175 -0.07647683
000270 8b 39 68 3c 2f db be bd b0 49 b0 3d 57 1b b8 3c
       0.014173876 -0.0931915 0.08607805 0.022473974
000280 cd cf 85 3d 3a a1 87 bd cf 1d ce 3d 2e 1c b2 3d
       0.065337755 -0.066225484 0.10064279 0.08696781
000290 7a 34 92 3c da 6d f0 bd 88 1c dd 3d 78 d4 3c bd
       0.017847288 -0.117397025 0.107964575 -0.046101063
0002a0 f8 6e f1 bd 7f 0a 2c 3d 70 ea d4 3d 0c dd a7 3d
       -0.11788744 0.042002197 0.10396278 0.08196458
0002b0 39 f1 e5 bd 78 47 84 bd 29 c0 de 3d 1f 3e a1 3d
       -0.1122765 -0.06458944 0.108764954 0.07873177
0002c0 04 9a f2 3c 9e 28 b5 bc 07 7d 0e bd 8f 59 a0 bd
       0.029614456 -0.022114094 -0.034787204 -0.07829582
0002d0 49 1d 8a bb 33 57 e1 3c da 15 b6 bd 73 7a c0 bd
       -0.004214917 0.0275074 -0.088908866 -0.09398355
0002e0 5d aa cb 3c 1c f5 11 3d 8b 15 9e 3d e4 67 0d bb
       0.024861509 0.035634145 0.07718953 -0.0021576816
0002f0 98 1d a3 bd d8 d3 8b bd 40 a4 c2 3d 2e d5 f4 ba
       -0.07964629 -0.06827515 0.095039845 -0.0018679255
000300 f7 f6 28 bd 30 78 00 3d 7b 39 f3 bd 04 e2 ea bc
       -0.04125115 0.03136462 -0.11876198 -0.028672226
000310 33 ba b2 3d 0d 03 a4 bd 12 4d 00 bd 03 37 e8 3d
       0.08726921 -0.080083944 -0.0313235 0.11338618
000320 b7 6b b0 3c cd 6a bd 3c 24 1c e2 bc 7f 66 aa 3d
       0.021535737 0.023122216 -0.02760131 0.08320331
000330 10 4a c1 3d 73 3d ad bd b7 90 c3 bb ec fb 92 bd
       0.094379544 -0.08458986 -0.005968179 -0.071769565
000340 9a f0 8d 3d e8 dc e7 3d 86 2d 5f 3c e3 32 de bd
       0.06930657 0.113214314 0.0136216935 -0.108495496
000350 e5 0f a8 bd 82 65 d5 3d 3a 47 e2 3c 5c 2a 96 bd
       -0.08206157 0.10419752 0.027621854 -0.07332298
000360 17 5d 71 3c 87 b0 a6 bd 81 60 c3 bd 37 f8 b8 3d
       0.014731667 -0.08139139 -0.09539891 0.09031718
000370 08 60 88 3d cf 30 0b bd c0 bc 40 bc 20 e5 fe 3c
       0.066589415 -0.033982094 -0.0117637515 0.031115115
000380 29 07 92 3d e0 bb 83 bd 4b cd 25 3d c7 45 9e bc
       0.07130272 -0.06432319 0.040478986 -0.019320382
000390 39 8c dc 3c 9b 6d a7 3c f1 78 ae 3a 98 c1 5e bc
       0.026922332 0.020438006 0.001331119 -0.013595961
0003a0 ec 4f 87 3d b5 24 1c 3c ed 6a 10 3d dd d5 0a 3c
       0.06607041 0.009530236 0.035258222 0.008473841
0003b0 fe 32 3d 3b 08 80 a6 3d c7 64 20 3d 51 ee 78 3b
       0.0028869505 0.08129889 0.03915861 0.0037983845
0003c0 db f3 90 3d d8 1e e5 3d fc a7 c6 bb 84 10 b9 bc
       0.07077762 0.111875236 -0.0060625058 -0.022590883
0003d0 60 f5 14 3c 5f 76 b5 3d a7 93 a2 bc 4f 8f 5c 3c
       0.009091705 0.08860468 -0.019845797 0.013461902
0003e0 4f cc 8f 38 5a b5 ae bc 7a 1b 10 bd e1 c2 89 bc
       6.856827e-05 -0.02132671 -0.035182454 -0.016816558
0003f0 d2 a0 ba 3c 03 13 aa 3a fe 57 72 3c 38 55 ea bb
       0.022781763 0.0012975637 0.014791487 -0.007151272

module.layer2.linear.weight f4 [256, 256]
000000 a5 59 8b bc b2 c4 d0 3a 14 41 c8 ba 3a 8c 84 bb
       -0.01701052 0.001592776 -0.0015278184 -0.0040450366
000010 23 c7 75 39 23 4c 67 bb 1d 97 cb bc d1 66 a3 ba
       0.00023439205 -0.0035293184 -0.02485233 -0.0012466555
000020 35 1d ad 3b e9 39 43 bb 71 69 6b bb 2f a9 87 3c
       0.0052830228 -0.0029789156 -0.0035921002 0.016560165
000030 07 44 28 3a dd fe 3e bc 1c 47 1c 3b 79 42 c7 bb
       0.0006418828 -0.011657444 0.0023846095 -0.006080922
000040 ef 8b d0 bb 92 f9 41 39 3a 32 0a 3c bd 12 c4 3c
       -0.0063643376 0.00018498886 0.0084348265 0.023934716
000050 c3 de 64 3a e3 7a 56 3a 13 b5 30 bb 54 64 c4 3b
       0.0008730704 0.00081817637 -0.0026963397 0.0059934054
000060 1d 6b 9a 3a 0e 8d 26 bb 57 01 08 bc 3a 5f 56 bb
       0.001178119 -0.0025413665 -0.008301101 -0.0032710568
000070 6b c5 81 bb 76 58 56 bc e2 a1 0c 3c 03 bd bf 3b
       -0.0039603016 -0.013082614 0.008583518 0.0058513894
000080 93 ab 89 3a 4a 4e 21 b9 1c 35 df b8 96 26 ac bb
       0.0010503404 -0.00015383321 -0.00010643361 -0.0052536232
000090 87 34 08 3b c3 54 ae ba 8e 7a 8d 3b 0d 7a 9d bb
       0.0020783262 -0.0013300407 0.004317588 -0.0048058094
0000a0 7b 8b a9 bb 7b 3c 80 bb cb eb eb 3b a8 46 31 3a
       -0.005174098 -0.00391346 0.0071997396 0.0006762543
0000b0 23 20 a0 bb db 17 89 ba 30 5b 0d bb 4e 92 1f 3b
       -0.0048866435 -0.001045938 -0.0021569245 0.002434868
0000c0 0a 62 d4 bb 2d 21 01 ba 08 55 5a 3a 7f 35 38 39
       -0.0064814137 -0.0004925903 0.00083287107 0.00017567536
0000d0 a8 4c 59 3c ea ff da 3a 6d ac 92 ba d7 ce 1e 3c
       0.013262905 0.0016708348 -0.0011190303 0.009692869
0000e0 5d 49 d6 3b c2 f7 fc 38 69 41 60 bb a6 e7 4c bb
       0.0065395073 0.00012062445 -0.0034218675 -0.0031266003
0000f0 cf f7 bd ba c1 2e c3 3b a0 0c a1 3a 7d d9 65 b9
       -0.0014493408 0.0059565012 0.0012287088 -0.00021920163
000100 b3 54 aa 38 44 54 44 bc 89 3a ca 39 e0 a4 21 bc
       8.122008e-05 -0.011982981 0.00038572054 -0.009865969
000110 70 4c e5 bb 50 bf 3c bb 10 64 86 3b d0 44 e7 bc
       -0.0069976375 -0.0028800555 0.004101284 -0.028231055
000120 e9 34 5c 3b 90 ac 6e ba da 50 2a 3b 2c d8 4c bb
       0.0033600873 -0.00091046933 0.0025988133 -0.0031256778
000130 31 06 28 bc d3 a0 a5 bc 9a 7d 95 bb f0 b7 8c ba
       -0.010255382 -0.020218289 -0.004562092 -0.001073597
000140 f0 55 1c bc c3 c4 64 3c a9 90 a2 3b 73 83 30 bb
       -0.0095419735 0.013962927 0.0049610925 -0.0026933819
000150 48 21 9d 3b cd 17 8f bc 4e e9 e9 3b 08 ff 5a bb
       0.004795227 -0.017467404 0.007138408 -0.003341617
000160 85 f5 03 3b 94 3f ab 37 fe a9 2f bb 3a 22 eb 3b
       0.0020135355 2.0414394e-05 -0.0026804204 0.007175711
000170 2b e6 3e bc b8 5a 76 bb 28 fd 90 bb 7d f8 b5 3b
       -0.011651556 -0.0037590694 -0.00442471 0.0055533038
000180 a6 01 fb ba 5b d7 6e bb 87 01 0b bc c3 de 6e 3b
       -0.0019150272 -0.003644428 -0.008484251 0.0036448694
000190 40 94 44 bc 90 03 f2 bb d5 ff f0 bb 79 39 0f bc
       -0.011998236 -0.0073856786 -0.0073547163 -0.00874173
0001a0 6e 83 99 3b 66 6f d5 bb 3c 58 79 ba b3 3a ce ba
       0.004684857 -0.006513524 -0.0009511744 -0.0015734046
0001b0 21 98 49 3b 9b 62 87 3b 78 e0 7d 3c 1c 0d 13 3c
       0.0030760842 0.0041316277 0.015495412 0.0089752935
0001c0 e1 09 98 3a 72 34 81 3b 68 9f 89 bc 81 9e e3 3b
       0.0011599624 0.0039430195 -0.016799644 0.0069463854
0001d0 90 a0 58 bb 21 f7 3c bb ae 38 5e 3b 71 14 39 3c
       -0.0033054687 -0.0028833824 0.0033908295 0.0112963775
0001e0 ef e9 40 3c 27 fb 9a bb 26 b9 0e bc 70 ce 3b bb
       0.011774524 -0.0047296467 -0.008711135 -0.0028656982
0001f0 58 a0 30 bc 3e 3b 9f bb 7b c1 13 bb 61 a6 8f 3b
       -0.010780416 -0.004859357 -0.0022545743 0.0043838476
000200 c1 1a 04 bd b9 d2 f5 bc 1f b9 ba bb 23 c8 6d bb
       -0.032252077 -0.030007707 -0.0056983377 -0.003628262
000210 32 c8 c6 bb 70 ce 4e bc 4a 43 63 3c 76 da c1 3b
       -0.0060663456 -0.012622461 0.013871023 0.005915935
000220 2a 29 19 3b 59 9e a0 ba a4 83 80 3b c3 d7 83 3c
       0.0023370483 -0.0012254223 0.003921943 0.016094094
000230 aa 1e 03 3c ae 69 f7 3a eb 8f 41 3b cf be c0 bb
       0.008002916 0.00188761 0.0029535245 -0.005882121
000240 1e cd 8b 3a 0b da 06 3b fd 73 e5 39 3d 74 f1 3b
       0.0010665988 0.002057674 0.00043764702 0.007368593
000250 27 3d 8e 3b 08 4a 4c bb 15 23 c1 3a 4a fb 16 3c
       0.004340786 -0.0031172056 0.0014735187 0.009215185
000260 d2 f1 aa 3b 44 d5 fa b9 db e7 af 3b 60 96 fa 3a
       0.0052168155 -0.0004784261 0.0053682155 0.0019118302
000270 e8 0e 35 3a 20 83 cf bc d1 77 12 3c de ae 9b 3b
       0.0006906823 -0.02533108 0.008939699 0.0047510704
000280 a7 10 78 bb da f3 c3 3a 67 88 80 3a b7 83 ae bb
       -0.0037851722 0.0014949993 0.0009806276 -0.00532576
000290 a7 92 8a 3a bc 5e 75 bb cd 69 24 bc 04 2f 27 ba
       0.001057227 -0.00374405 -0.0100349905 -0.00063775503
0002a0 28 88 bf ba 5c de 27 bb b3 e7 94 bc 79 71 76 3b
       -0.0014612721 -0.0025614714 -0.018176889 0.0037604256
0002b0 1a 66 02 bb 68 18 1e 3a 8d ab 41 bb 90 d1 5a bb
       -0.0019897283 0.00060308585 -0.0029551715 -0.003338907
0002c0 cd fd 18 3b da c5 3d ba 58 4e e4 ba 8d 34 43 ba
       0.0023344636 -0.000723926 -0.0017418368 -0.00074464903
0002d0 1c a8 89 3b d5 f2 0b 3c 25 34 a4 3b 48 fb 2a 3c
       0.0042009484 0.008541782 0.005011099 0.010435887
0002e0 e4 4f 04 3c 35 f2 bd 3b 3e 01 16 3a 0b 16 ea 3b
       0.008075688 0.0057966956 0.0005722231 0.007143741
0002f0 03 90 7b 3a 0c 86 2d 3b 5c 6f b5 3c 66 aa 1c bc
       0.00095963496 0.0026477603 0.022147827 -0.0095621105
000300 92 44 53 3b 7f 9e af 3a 01 a1 4e bb 9a 23 35 ba
       0.0032236916 0.0013398676 -0.0031529071 -0.0006909907
000310 d9 8a fa 3a 0a c8 9c 3b 4c 2c 14 bb fd 8d ce 3b
       0.0019114866 0.0047845887 -0.002260941 0.0063035474
000320 cd cd 86 bb 2c 06 ff ba f6 bd d6 bb b1 51 62 ba
       -0.004113889 -0.0019456795 -0.006553407 -0.0008633389
000330 e9 2a 40 bb 3d 1b 48 bc 76 d7 a1 bb e9 00 09 bc
       -0.0029322451 -0.012213525 -0.004939015 -0.008362033
000340 fb 1a 5b 3b 3b 36 0d bc 01 c3 0b bc 50 4f 70 3b
       0.003343283 -0.008618887 -0.008530379 0.0036668368
000350 fd 3f 5e bb c1 d5 f4 3c ef f0 25 bb 11 fb 0e ba
       -0.0033912652 0.029887082 -0.002532061 -0.0005454282
000360 5a 14 c0 3b 5d 42 01 bb d1 c4 7b 3b 05 18 5c 3c
       0.005861801 -0.0019723393 0.0038416872 0.013433461
000370 58 e0 59 ba c1 4a be bb 54 fe 8a 3b bb 60 2a b9
       -0.0008311323 -0.005807251 0.004241744 -0.00016248498
000380 9a 3a 25 b9 6a 1c 86 3b 69 5f b2 3a e5 47 09 3c
       -0.00015757457 0.0040927427 0.0013608757 0.008378957
000390 17 34 b8 ba 2c b5 bf bb af 69 08 bb 90 36 0f bb
       -0.001405361 -0.005850455 -0.0020814945 -0.002185259
0003a0 e6 ec 25 3a 72 9b e5 bb 02 33 b8 bb e8 f7 53 bb
       0.0006329551 -0.007007056 -0.005621315 -0.0032343809
0003b0 58 b8 67 3c fd 8f 73 3b 60 d6 11 3b f4 88 41 bc
       0.014143072 0.003716468 0.0022253022 -0.011812437
0003c0 7b 21 9b bb 77 c6 07 bc 92 fb de bb 89 81 be ba
       -0.004734216 -0.008287064 -0.006804892 -0.0014534454
0003d0 8c d7 9c 3c 8d 33 d5 bb 0a 63 50 bc c7 f6 c3 3b
       0.01914575 -0.0065063895 -0.012718925 0.005980346
0003e0 7e c1 90 3a 20 aa 59 ba ec 56 7c ba 62 57 18 3b
       0.0011043993 -0.00083032437 -0.00096259895 0.0023245444
0003f0 af a0 25 bb 66 0c d8 bb 1e 0f 17 3b 4c 24 ae 3a
       -0.0025272777 -0.006593275 0.0023049782 0.0013285964

module.layer2.linear.bias f4 [256]
000000 1a 07 9a 3c 1d 5e 23 bd b6 db 67 bc 17 20 60 bd
       0.018802214 -0.039884675 -0.014151504 -0.054718103
000010 3c 42 ae 3c 1e 6a 01 bd fa df 55 3d f2 ca 2e bd
       0.021271817 -0.03159534 0.052215554 -0.042674012
000020 d8 b3 33 bd 8d 25 8e bc ae d0 3b 3d c0 81 f0 bc
       -0.043872684 -0.01735189 0.04585331 -0.029358745
000030 25 94 68 3d b7 15 5b 3d 11 2e 83 bd 3f e7 dd 3c
       0.056781907 0.053487506 -0.06405271 0.027087806
000040 c0 d0 4c bd 40 21 0b 3d 0f a3 69 3c 96 c6 6f bd
       -0.050003767 0.033967257 0.014260068 -0.058538996
000050 c5 40 3d 3d ec 05 9b ba 26 35 5b bd d4 3e c6 bc
       0.046204347 -0.0011827326 -0.053517483 -0.02419988
000060 d9 86 34 ba a3 46 0d bd 20 a4 f5 3c 4e 7a 08 3d
       -0.0006886549 -0.034491193 0.029985487 0.033319764
000070 d6 fb 84 3b 7e bd ab 3b 71 d6 3f 3d ef eb 81 bd
       0.0040583415 0.005241095 0.046835367 -0.06343829
000080 d1 17 07 bd fb 7b f5 bc df 9d 80 bc e6 65 53 bd
       -0.032981697 -0.029966345 -0.015700279 -0.05161085
000090 ec 78 a4 3b 3b 61 37 bd 60 12 33 bd 2e 5d cb bc
       0.005019298 -0.04477046 -0.043718696 -0.024824705
0000a0 f2 20 07 bd 99 ce db bc b8 7c e8 3c 6d 21 5b bd
       -0.032990403 -0.026831912 0.028379783 -0.053498674
0000b0 b9 fb 07 3d a9 dc 9d 3c 7b 8a 23 3d 4d a2 8f bc
       0.033199046 0.019270258 0.039926987 -0.017533446
0000c0 f8 54 34 bd 1d e4 aa 3c 51 89 43 bb bb b9 82 bc
       -0.044026345 0.020860726 -0.0029836486 -0.015957704
0000d0 e3 54 7c bc 99 87 bd bc 00 7f 25 3d a8 8c 41 3d
       -0.015401098 -0.023135947 0.04040432 0.04725328
0000e0 05 49 fd 3a 93 4d c3 bc 45 4d 06 bd 80 48 10 bc
       0.001932413 -0.023840701 -0.032788534 -0.008806348
0000f0 aa 97 95 bc c7 fb 9f bb 96 3d 82 bb eb d0 81 3c
       -0.018260796 -0.004882309 -0.003974627 0.01584669
000100 ad d0 82 3d b2 40 da 3c 7e a9 09 3d aa 21 81 bd
       0.06387458 0.026642177 0.033608906 -0.06305249
000110 c8 39 50 3d 33 94 c3 bc 51 fd 16 3d a0 b9 a0 bb
       0.050836354 -0.023874378 0.036862675 -0.0049049407
000120 4e 90 e1 bc e4 55 26 3d 0d ba 05 bd e7 5a 02 bd
       -0.02753463 0.040609255 -0.032648135 -0.031824972
000130 a3 97 ec bc 4e 6e 3f 3d 3b df 5b bd 0b 0d 04 bd
       -0.0288809 0.046736054 -0.053679686 -0.032239
000140 28 26 19 3d 21 81 40 3d 74 71 38 bd 98 09 6a bd
       0.037389904 0.046998147 -0.045030072 -0.057138056
000150 96 8b be 3b b9 02 f0 3c 08 2c 20 bd 37 73 55 ba
       0.00581498 0.029298173 -0.03910449 -0.00081424735
000160 f5 9c 5a bc 64 cb c2 3c 09 62 de bc 57 ce 9e 3c
       -0.013343086 0.023778625 -0.027146356 0.0193855
000170 82 f3 c5 3b 7d 64 6a 3d 1e 4c d3 bb f2 5a aa 3b
       0.0060409913 0.05722474 -0.006448283 0.00519883
000180 85 27 47 3d 79 4e c2 3c ca 1e a5 3b 6c 33 c8 bc
       0.048621673 0.02371906 0.0050390707 -0.024438582
000190 6a d4 85 3d ff b1 22 3b 1a 62 0f bd a5 2b 5f bd
       0.065346554 0.0024825332 -0.035005666 -0.054484982
0001a0 61 e2 36 3d ee 79 42 3d a0 dd 62 bd 8f fe 53 bd
       0.044649485 0.047479562 -0.05538714 -0.051756438
0001b0 67 10 08 3c 56 42 58 3d 2f 37 3f bd 92 6e 28 bc
       0.008304692 0.052797638 -0.046683487 -0.010280268
0001c0 e5 49 37 bd fc 54 5f bd 90 08 d6 3c 7d 4d 22 bd
       -0.044748206 -0.054524407 0.02612713 -0.03962468
0001d0 86 bb 3a bd 19 b1 2a bd 48 f1 0c bc 34 3c 16 3d
       -0.045588993 -0.0416728 -0.008602448 0.036678508
0001e0 d2 4e 38 bd 05 d6 ba 3c 86 30 b6 3c 4a 00 62 3d
       -0.044997044 0.02280713 0.022239935 0.055176057
0001f0 c0 cf e5 bb f3 d2 39 bd 6b fc 76 bb 91 0d ed bc
       -0.007013291 -0.045367192 -0.0037687074 -0.028937133
000200 70 7f 6f 3d cf 60 1a 3d b8 f9 a2 3b 3a 4b 58 3c
       0.058471143 0.03768998 0.0049736165 0.013201529
000210 ba 76 00 38 19 5c 1b bd df d9 e4 3c e7 27 da 3c
       3.062815e-05 -0.037929628 0.02793592 0.026630355
000220 29 2d 5b bd 46 fd 0a bd eb 7b 1b bd 4e 6b 82 ba
       -0.053509865 -0.033932947 -0.037959974 -0.0009950192
000230 d7 88 29 bc 5c 08 46 bd 58 04 c5 3c e3 93 ed bc
       -0.010347567 -0.048347816 0.024049923 -0.029001182
000240 14 24 16 bc 0d b1 f5 3c 5a 4d 1e 3d 5a 4c 47 bd
       -0.009163875 0.029991651 0.038647987 -0.0486568
000250 22 3c 62 bd ab 2a e5 bb 48 70 1d bd d9 07 48 bd
       -0.05523313 -0.006993612 -0.038437158 -0.04883561
000260 78 da 4c bc 06 15 81 3d 36 1f 2c bb 31 69 66 3b
       -0.012503259 0.06302838 -0.002626372 0.0035157914
000270 68 af 6b bd 48 30 7a 3c 9d 3b 0e 3d fe d8 50 3d
       -0.057540327 0.0152703 0.03472482 0.05098819
000280 59 1b c8 3c 5c 54 0d bd cf 75 83 bd 12 96 8d 3c
       0.024427103 -0.03450428 -0.064189546 0.017283473
000290 15 2f 35 bd d5 9e 70 bd 34 ee 35 3d 46 1a 82 3c
       -0.044234354 -0.058745224 0.04441662 0.015881669
0002a0 1e 01 4e 3d 22 ed 30 bb 5a 45 6e 3d 2b 86 73 3d
       0.050294034 -0.002699681 0.058171608 0.059454124
0002b0 94 ef 3f 3d bd a0 5e 3d c2 29 5c bd 9b cb 62 bd
       0.04685934 0.05435251 -0.05375076 -0.055369955
0002c0 f0 04 0a bd 32 fa 66 3d a6 50 78 bd c5 01 0d 3b
       -0.033696115 0.05639095 -0.060623787 0.0021515947
0002d0 de f3 0e 3c 59 87 79 bd 20 b3 3a 3d 03 b5 c0 3c
       0.008725135 -0.060920093 0.045580983 0.023523813
0002e0 df 60 19 3c b0 a4 f1 bc e9 a9 9b 3c 1a 30 03 bd
       0.009361475 -0.029497474 0.019001918 -0.032028295
0002f0 a5 3b cb bb 72 bc 11 3d 29 e9 ae bc 68 2d 22 3d
       -0.0062021785 0.035580106 -0.021351414 0.039594084
000300 32 5a b8 bc e4 31 40 3d a6 28 33 bd 23 04 18 3d
       -0.022503946 0.04692258 -0.043739937 0.03711332
000310 a7 bf 9f 3c a1 3e cd bb 11 fe 47 bd a2 7e b4 bc
       0.019500567 -0.0062635695 -0.04882628 -0.02203304
000320 0a 7b 75 3d 4f c5 c9 3c f5 14 7d bd 24 41 13 bb
       0.059931792 0.024630217 -0.061787564 -0.0022469247
000330 01 d7 ae bc f4 e6 23 3c 8d 07 77 bd 02 ea c5 3c
       -0.021342756 0.010003794 -0.060309935 0.024159435
000340 a0 83 12 bd 18 c9 36 3d 13 e2 8f bb a2 67 15 3d
       -0.03577006 0.04462537 -0.004390964 0.036475785
000350 82 af da 3c 59 97 0c 3d 80 3f 06 3d e6 3b 82 3d
       0.026695017 0.034324024 0.032775402 0.06359081
000360 b3 33 56 bd 1c b3 55 bd ad e6 6c 3d c3 60 34 3d
       -0.052295398 -0.052172765 0.057837177 0.04403759
000370 3a 30 cf bc e3 d4 1e 3d ed 2a 81 bd 52 d9 31 3d
       -0.02529155 0.038777243 -0.063070156 0.043420143
000380 51 a2 42 bd 32 39 56 3d f5 da 10 3d 54 3e 61 3d
       -0.04751808 0.05230064 0.035365064 0.05499108
000390 68 03 15 3d 0c 5d 22 3c e6 f3 59 3b e3 aa e5 3c
       0.0363802 0.009909879 0.0033256947 0.028035587
0003a0 d8 22 95 3c 74 e3 a2 3c 88 74 16 bc 9f d8 9b 3b
       0.018205091 0.019883849 -0.009183057 0.004756048
0003b0 21 24 05 3c 3b 34 65 bd b2 fd 42 bd 36 f5 eb 3c
       0.00812629 -0.055958014 -0.047605224 0.02880345
0003c0 85 74 65 3d 75 a7 fe bc 2c 4a 54 bc 8b 03 f9 bc
       0.056019325 -0.03108571 -0.012957137 -0.030397197
0003d0 c2 3b fc bc 32 6f 48 bd 5a 7f 6f bd 87 8d 7f 3c
       -0.030790213 -0.04893417 -0.05847106 0.015597708
0003e0 54 7d ad 3c b2 0e e5 bc bc 09 7b bd 90 b4 9a bc
       0.021177925 -0.027961109 -0.06128858 -0.018884927
0003f0 50 7e b0 ba 56 47 2e 3d 94 3e 2f bd 36 d9 d9 bc
       -0.0013465378 0.0425485 -0.04278429 -0.026592832

module.layer3.linear.weight f4 [128, 256]
000000 e3 9a ab 3a de ae 98 bb e4 78 9d bb 41 29 ac b9
       0.0013092424 -0.0046595177 -0.004805671 -0.00032837133
000010 66 e7 c5 bc d6 9f a2 bb 88 1d 00 3b e8 93 ec 3b
       -0.024158191 -0.0049629016 0.0019548852 0.0072197802
000020 b2 38 be bb ab e7 48 bc f5 64 b7 39 a9 6c f1 3a
       -0.0058050985 -0.012262265 0.000349797 0.0018419224
000030 5f 38 8f bb b6 d2 cb 3b 16 b2 03 bc d9 38 e1 3b
       -0.0043707336 0.006220187 -0.008038064 0.006873232
000040 f1 ef 56 bb 71 38 0d 3c ae eb d6 3b bd 9c a2 3b
       -0.0032796825 0.008619414 0.006558857 0.0049625323
000050 2e 71 36 bc d0 26 ea 37 9a 26 a4 3b c8 60 52 3c
       -0.011135383 2.7913047e-05 0.0050094845 0.012840457
000060 ce a9 c3 bb 08 f7 80 bc bf 01 c9 3b 7f 9a dd b7
       -0.00597117 -0.015742794 0.0061342414 -2.6417196e-05
000070 bf b6 40 3c 4e 31 28 3c 97 d7 92 bb b9 ca ee 3b
       0.01176232 0.010265661 -0.0044812667 0.00728735
000080 75 2c 99 bb 13 1c 1d bc fc f8 66 bb a0 be 22 bb
       -0.004674489 -0.009589213 -0.003524362 -0.002483286
000090 49 99 b0 bb d2 6c 08 b9 90 5c b5 ba a6 c9 87 3a
       -0.0053893668 -0.0001301051 -0.001383679 0.0010359779
0000a0 6c 3f b6 3b 5b 59 6f bc 7f af 6c bb e7 6b bb 3a
       0.0055617597 -0.014608706 -0.0036115346 0.0014299125
0000b0 40 3c 15 3c 84 dd 3e b9 b0 a9 8f 39 5d a2 10 bc
       0.009108603 -0.00018202333 0.00027401512 -0.008827773
0000c0 aa bf d1 3b 50 91 19 bb a6 e2 ca bb e4 30 29 bb
       0.006401022 -0.002343256 -0.0061915694 -0.0025816495
0000d0 31 c9 1a ba e6 25 3d bb 8f b5 2b bb f8 35 bf 3b
       -0.00059046136 -0.00288617 -0.0026200747 0.005835291
0000e0 78 3d 41 39 53 da 2c 3c e9 7e 7c 3b e3 27 51 3b
       0.00018428813 0.010550099 0.0038527793 0.0031914643
0000f0 b6 a2 a0 3b 86 96 6c bb 22 bd 56 ba a6 36 0a 3c
       0.004902209 -0.003610046 -0.0008191635 0.008435881
000100 84 31 00 bb 17 de 7b 3b 00 6a 11 3b 7f 37 15 3c
       -0.0019560764 0.0038431936 0.0022188425 0.00910747
000110 3f 0e 8f bc e9 a7 20 bc 93 95 66 bc 6b 2d d4 3b
       -0.017462848 -0.009805658 -0.014073747 0.006475141
000120 94 91 06 3c 55 60 b7 bc 81 3c c4 39 0a 2d 14 ba
       0.0082134195 -0.022384802 0.00037429112 -0.00056524633
000130 57 1d 9f bb 27 99 a9 3a c5 81 da bb b2 95 b5 3c
       -0.0048557925 0.001293932 -0.0066683018 0.022166107
000140 2f 5d f7 ba 7b b4 ce 3a 06 42 fb bb 3b 0e aa bb
       -0.0018872375 0.001577034 -0.0076677827 -0.0051896847
000150 b7 47 c9 3a 1b 37 b6 3c 37 9e 40 bb c5 4f 06 ba
       0.0015356456 0.022243073 -0.0029391178 -0.0005123581
000160 1f c5 1a 39 38 2f 61 bb b6 d4 12 bc 96 b7 ae bb
       0.00014760018 -0.003436042 -0.008961847 -0.0053319437
000170 23 94 a2 3c a7 66 d6 3a 12 59 ee bb 79 bf 75 bb
       0.019846028 0.0016357497 -0.0072738016 -0.003749816
000180 00 97 67 bb c4 19 fc 3b 7a cb 9f 3b 7e 87 e5 bb
       -0.0035337806 0.007693501 0.004876551 -0.0070046773
000190 f2 91 2e bc 2a 61 c1 bb 7c 77 60 bb 52 6f ab bb
       -0.010654913 -0.0059014754 -0.0034250906 -0.0052317763
0001a0 46 96 37 bc 36 d1 0e bb 27 1b e2 3a ea 2b ec bb
       -0.011205262 -0.002179218 0.0017250524 -0.0072073834
0001b0 6d 2e ce 3a d6 ba 9d ba 93 76 6b 3b d0 23 bf bb
       0.0015730389 -0.0012033831 0.003592883 -0.0058331266
0001c0 96 11 ed ba 8d 13 eb ba 90 b2 c0 bb da 2a dc ba
       -0.0018086906 -0.0017934904 -0.0058806613 -0.0016797439
0001d0 90 db 04 bd ac c2 17 3b b0 16 bd 3a 5e 15 11 b9
       -0.032435954 0.0023156805 0.0014426317 -0.00013836237
0001e0 d8 b3 4b 3c 27 02 60 bb 3b e4 8b 3b 8d 73 9c bc
       0.012433015 -0.003418097 0.0042691506 -0.019098068
0001f0 54 d0 a9 3b 5c cf 06 3c 83 3a a2 ba 47 d3 2a bb
       0.0051823054 0.008228149 -0.0012377057 -0.0026065873
000200 bc 25 76 bb 52 fd 73 3c 51 ba 98 3b 03 83 8d 3a
       -0.0037559113 0.014891939 0.0046608825 0.0010796491
000210 d1 56 c2 38 8e 84 b4 39 61 0a b2 bb 05 a8 13 bb
       9.266812e-05 0.00034431036 -0.005433366 -0.0022530567
000220 94 49 a2 b9 23 7b 5c 3b e1 73 89 38 3a 62 c3 bb
       -0.00030953868 0.003364273 6.554253e-05 -0.0059626373
000230 15 cb a8 bb ee 58 88 bb ff 47 08 39 8f 0e dd b9
       -0.0051511624 -0.004160992 0.00012996791 -0.00042163252
000240 ba a4 07 bb 51 d8 52 39 0c 5f 04 bb e3 18 25 3b
       -0.002069755 0.00020107745 -0.0020198254 0.0025191836
000250 95 98 1d 3a 60 cd 87 bb ad 92 bd 3a 54 6d 30 3b
       0.0006011811 -0.0041443557 0.0014463268 0.0026920633
000260 39 46 28 3c 9e 55 08 3c 68 de 51 3b 71 e9 17 3b
       0.010270649 0.008321194 0.0032023434 0.0023179913
000270 6c bf eb 3b 41 8c b5 3b 7c a0 10 bb 17 e2 f5 bb
       0.00719445 0.005540401 -0.0022068312 -0.0075037587
000280 63 0f 9f 39 50 a3 c6 ba 45 e9 32 3c 3d 9b bc 3b
       0.00030338307 -0.0015154872 0.010919874 0.0057558105
000290 10 df f0 b9 b6 e4 a7 3c 32 6a 82 bb 3d c3 3e 3b
       -0.00045942562 0.0204948 -0.0039799446 0.002910807
0002a0 b6 8a 66 3c 9c 1e 48 3a d8 e6 2d ba 40 9e b1 3a
       0.014071157 0.00076339557 -0.00066338247 0.001355119
0002b0 d9 1a 7c 3b b7 5d 26 bc 11 b6 14 bc c7 72 70 3a
       0.003846815 -0.010154179 -0.009076611 0.00091723766
0002c0 be b8 c8 ba 58 b6 18 3b 5d 39 b1 bb e5 22 12 3a
       -0.0015313847 0.0023302045 -0.0054084496 0.00055746577
0002d0 e2 ff 5d 3b ca fd 11 3c fd 8a 59 bb c1 ed cb ba
       0.0033874442 0.008910606 -0.0033194416 -0.0015558527
0002e0 f6 80 68 3b b3 47 16 3a 01 65 2f 3c 86 20 31 bc
       0.0035477257 0.000573273 0.010705234 -0.010810977
0002f0 0b b5 71 ba 4b 6f bf bb f1 33 70 bc a7 b9 23 3b
       -0.0009220398 -0.0058421246 -0.014660821 0.0024982484
000300 b2 26 2e 3b 62 3d e1 3a ff 87 f9 ba 5b 95 59 3b
       0.0026573357 0.0017184431 -0.0019037722 0.0033200595
000310 0e 54 83 bb bc 5a 5f 3b 30 61 80 ba 38 4c 79 bc
       -0.004007823 0.0034081182 -0.0009794589 -0.015215926
000320 57 86 7d 3c a2 df 24 3b ca b2 1f bb 62 5d 7b 3c
       0.015473924 0.002515771 -0.0024368041 0.015342088
000330 c7 e8 7e 3b 55 ca 82 bc 7c 59 fe 3a 65 0c b1 3b
       0.003889607 -0.01596562 0.001940533 0.005403089
000340 32 c8 9d bc 96 dd f2 3b d1 92 62 3b 8c f3 c6 3b
       -0.0192605 0.007411669 0.0034572373 0.0060715135
000350 77 fb 34 bc a1 b3 2b b9 4a b0 c0 39 e9 77 2b bc
       -0.011046282 -0.00016374748 0.0003675244 -0.0104656005
000360 ac 34 15 ba 25 5d 37 3b 00 6b c9 3b 29 7a 50 b9
       -0.00056917476 0.0027979102 0.0061467886 -0.00019881934
000370 fe 38 80 b9 92 42 af 39 ac fc 3d 3c d7 f4 6d 39
       -0.00024456525 0.000334282 0.011595886 0.00022693291
000380 b8 1b 02 3c c5 a3 41 3b 8f 93 48 3b 85 c7 6d 3a
       0.007941179 0.0029547077 0.003060553 0.0009070563
000390 34 db 1d ba 6b 61 da 3b 27 4e 47 3a 2a 73 de bb
       -0.00060217385 0.006664445 0.0007602893 -0.006788631
0003a0 41 a6 13 bb d0 23 a6 3b 49 be 65 ba 33 f4 f0 ba
       -0.0022529515 0.005070187 -0.00087640114 -0.0018383324
0003b0 29 63 1a bb 8e 7f 33 bc fb ce ba 3b 5e f0 8e ba
       -0.002355764 -0.010955704 0.0057009435 -0.0010905375
0003c0 13 e8 1c bc e7 ae 92 bb 7d b6 76 bb 10 29 ee 3a
       -0.009576815 -0.0044764164 -0.0037645393 0.0018170197
0003d0 fa 69 24 3c eb c1 0e 3b 0b 6d 28 bb 63 a9 f9 bb
       0.010035032 0.0021783065 -0.002569976 -0.0076190694
0003e0 38 b6 82 bb a5 05 58 3b ad 78 20 3b 13 42 b8 ba
       -0.0039890073 0.0032962349 0.002448599 -0.0014057778
0003f0 1a 20 c5 3b 88 b1 7d bb 11 3e 8e bc e4 b3 05 3d
       0.0060157897 -0.0038710553 -0.01736358 0.03264226

module.layer3.linear.bias f4 [128]
000000 4e 8b 53 bd ac 35 50 3d d6 f5 be bc c7 40 84 bc
       -0.051646523 0.050832435 -0.023310583 -0.01614417
000010 70 81 d2 bb 67 60 cf bc 26 ee 5c bd 1a b1 76 bd
       -0.0064241216 -0.025314523 -0.053938054 -0.06022749
000020 9c 92 50 3d 1d 21 e9 3c 64 49 8c bc 99 cc dd bc
       0.050921068 0.028458172 -0.01712484 -0.027075099
000030 c0 ed 39 3d 58 2c 34 bd 18 c2 0b 3d a0 70 25 bc
       0.04539275 -0.043987602 0.03412065 -0.010097653
000040 a3 91 1c bd 1c a1 52 bd d7 03 96 3c a2 a5 49 b9
       -0.038224827 -0.051423177 0.018312378 -0.00019230557
000050 29 f0 d8 bc 3f 9d ee bc 77 38 57 3d 92 09 2a bd
       -0.026481705 -0.029127715 0.052544083 -0.041513033
000060 ad 3f 24 bd 71 16 25 3d 74 bd 0e bc f9 a2 49 3d
       -0.04009979 0.040304605 -0.008712161 0.04922769
000070 7a f3 59 3c 5f a7 3e 3d 0b 73 73 3d d6 0d 4b 3d
       0.013302678 0.046546336 0.059435885 0.04957374
000080 90 0c ec bc 6e 86 f1 3c a9 1d 4c 3d b0 a9 06 3d
       -0.028814584 0.029483046 0.049832974 0.03287667
000090 cd a4 7e 3d ee fb 13 3d e3 73 8e 3c 3d 65 66 bc
       0.062168885 0.03612893 0.017389243 -0.014062223
0000a0 da 20 01 3d 39 9a 3a bd 9b e2 ff bc e4 eb eb bb
       0.03152547 -0.045557234 -0.031235984 -0.007199751
0000b0 be 0d 78 3d 9a ed 44 bd cc 2b ef 39 86 3f 31 bd
       0.06055998 -0.048078157 0.00045618264 -0.04327347
0000c0 da af 7f 3c 95 30 0f 3d 97 31 25 bc 93 25 fa bc
       0.015605891 0.03495844 -0.010082624 -0.030535495
0000d0 d3 5b 79 bd aa 6a 7e bd 45 78 f2 bc d8 6d 48 3d
       -0.060878586 -0.06211344 -0.029598365 0.04893288
0000e0 90 1d 3d 3d cc 4c 3f 3c 6b 86 d7 3c b4 be 04 bd
       0.04617077 0.011676025 0.026309213 -0.03240843
0000f0 93 4a 43 3c 93 81 a7 3b 4d 8d 64 bc a6 1b 37 3d
       0.011919635 0.005111882 -0.013949704 0.044704102
000100 06 7a 74 bd 67 47 19 3d 54 2f 1b 3d 6f ad 9e bb
       -0.059686683 0.03742161 0.037886932 -0.0048424522
000110 d9 88 58 3d 00 27 4b 3d 20 a3 52 3d 31 66 48 bd
       0.052864883 0.04959774 0.0514251 -0.048925582
000120 c6 a6 f8 3c 8e e9 1d bc f9 5a ac bc b8 48 2f 3d
       0.030352961 -0.009638203 -0.021039473 0.04279396
000130 c9 af 5c 3d d2 86 27 bd 59 d4 ff 3c 16 d2 34 3c
       0.05387858 -0.04090006 0.031229185 0.0110364165
000140 94 2c 38 bc 33 28 52 3d 82 c9 3f 3d e8 48 88 3d
       -0.011241097 0.05130787 0.046823032 0.06654531
000150 2c bf 54 bd 7d a4 80 3b 4a 57 25 3d ed 5d fe 3c
       -0.05194013 0.0039258585 0.04036645 0.031050647
000160 dc a9 e4 bc 32 57 21 bd 2b a1 2e 3d d6 7a 3d 3d
       -0.027913027 -0.039389797 0.04263417 0.046259724
000170 36 93 4c bd 84 30 2c 3d 29 bb fd bb 9e 33 3f bd
       -0.04994508 0.042038456 -0.0077432585 -0.046680085
000180 e7 3f be bc 97 fc 74 bc 3f 2c 64 3d b9 98 2f bd
       -0.02322383 -0.0149528 0.05570626 -0.042870257
000190 e9 62 3f 3d 16 db ef bc e7 be 78 3d 24 f0 26 bb
       0.046725187 -0.029279273 0.060728934 -0.0025472725
0001a0 bc 35 b1 bc 5e 85 1a 3d 63 07 94 3c b7 ad 04 3c
       -0.021632068 0.037724845 0.018069929 0.0080980575
0001b0 c0 e4 95 3c 26 ee 69 bd 77 ba f4 3c 3f 0f d8 3c
       0.018297553 -0.05711188 0.02987407 0.026374457
0001c0 b3 21 08 3d c1 eb 82 3c a6 fc 64 bd 90 52 0d bd
       0.033235263 0.015981557 -0.055905007 -0.034502566
0001d0 66 94 ef 3c 51 97 20 bd a8 73 13 3d 08 8f 76 bd
       0.029245567 -0.039206807 0.03599897 -0.060195
0001e0 98 c2 64 3d e9 fc 09 3c 0f 60 95 3c 80 2f 73 3c
       0.05584964 0.008422115 0.01823428 0.014842868
0001f0 a4 a6 63 bd 3c 77 3f 3d e4 ea 7d bd 20 1d f6 bc
       -0.055578843 0.04674457 -0.061991587 -0.030043185

module.layer4.linear.weight f4 [256, 128]
000000 53 14 01 bc 65 8a 5f bb d3 11 8a 3b 2b 59 ac 38
       -0.007878381 -0.003410959 0.0042135506 8.218208e-05
000010 13 e8 a8 ba 7c 7e 6e 3b 88 19 80 bb 12 d8 2f bc
       -0.0012886546 0.0036391309 -0.0039092936 -0.0107326675
000020 7c cf 87 3b 39 e2 71 bb 95 c0 e9 3b cb 4a 0b bc
       0.004144607 -0.003690852 0.0071335533 -0.008501719
000030 75 52 bf ba b7 66 65 ba be 83 4e 3b 39 e8 38 3b
       -0.0014596718 -0.00087509624 0.003151163 0.0028214587
000040 ef 7e a4 bb a1 cf 39 3b bd 0c b4 3b 2f 96 08 3b
       -0.0050200145 0.0028352516 0.0054946826 0.002084147
000050 fa 40 8d 3b c3 c4 61 3b ac e1 05 bc 5f af 05 3b
       0.0043107243 0.0034449555 -0.00817148 0.0020398719
000060 92 ea 67 bc bf 30 53 bb 64 bd 9b bb 59 a5 1e 38
       -0.014155047 -0.00322251 -0.0047528017 3.7824128e-05
000070 ff e4 3a bb 46 3c 1a ba db e2 5b 3b 6c d8 d1 bb
       -0.002851784 -0.0005883615 0.0033551964 -0.0064039733
000080 2f e7 8c 3b 9d 5c e5 3a 61 02 33 bc dd 06 4a ba
       0.00430002 0.0017498914 -0.01092586 -0.0007706711
000090 7b 2e 5e bb 64 36 58 bb 95 6d 68 3c a2 25 d9 bb
       -0.0033902216 -0.0032991404 0.014186283 -0.0066268006
0000a0 47 29 b3 bb e7 2b ce 3b a8 ea 3a 3a d8 f5 2e 3a
       -0.005467567 0.0062918547 0.00071303034 0.0006674207
0000b0 b5 cd 54 bb ea d2 9e 3b aa df f3 ba 03 f8 d1 b9
       -0.0032471244 0.0048469203 -0.0018606086 -0.0004004837
0000c0 77 bd 98 3b fb ec 9f bb 16 bc 2f bb b9 8c 21 bb
       0.004661258 -0.004880545 -0.0026814989 -0.0024650528
0000d0 30 95 cd 3b 09 06 b0 bb f3 ac ab 3a 90 31 75 bb
       0.006273888 -0.005371813 0.0013097808 -0.0037413575
0000e0 c3 c5 c5 3a 1d 3d c4 3b 64 0a 4a 39 37 3a 9c ba
       0.0015088845 0.0059887306 0.00019268092 -0.0011919205
0000f0 1e b3 29 3b fb df c4 bb aa c7 80 3b a3 46 1b bc
       0.0025894116 -0.006008146 0.003930052 -0.00947729
000100 90 fb 8b bb a0 10 0d bb bf 26 c4 3a bd ea 68 39
       -0.004271932 -0.0021524802 0.001496516 0.00022212691
000110 e9 d5 87 3b d6 e4 74 39 57 44 2e 3b b6 3c 46 3c
       0.004145373 0.00023354901 0.0026591027 0.012099436
000120 3c b1 3b b8 33 02 a8 39 0b 6b 47 3b f9 b3 27 3b
       -4.4749337e-05 0.00032045096 0.0030428793 0.002558945
000130 b0 6d 55 bb 9a 5c 3b b9 24 71 81 bc 3c 5a 8b 3a
       -0.00325666 -0.00017868206 -0.01580102 0.001063175
000140 20 95 be bb 1e 41 93 bb f0 35 a3 3b be f5 d0 ba
       -0.005816117 -0.0044938466 0.004980795 -0.0015942378
000150 41 e1 28 3a db b1 93 3b 31 06 2e bb b2 e8 42 bb
       0.0006442257 0.004507286 -0.0026553983 -0.0029740748
000160 ce 59 9b 3b 2a ae 94 bb 66 75 04 3c 43 d1 34 3c
       0.00474093 -0.0045373635 0.008084631 0.01103622
000170 30 29 3f 3b 13 18 01 bc a6 f0 1b 39 c6 da f8 ba
       0.0029168837 -0.007879275 0.000148716 -0.0018986098
000180 6f e3 b8 3b 39 7a b2 ba 6e aa 6e bb e7 c4 d6 bb
       0.0056423466 -0.0013616747 -0.0036417502 -0.0065542343
000190 10 2a a8 ba e8 5e d5 ba 4b 07 1b ba 13 4b 23 bb
       -0.0012829918 -0.0016278895 -0.00059138675 -0.0024916574
0001a0 9e 69 3a bb 8d 35 2c bc e9 cf cc bb 24 25 e8 bb
       -0.00284443 -0.010510814 -0.0062503708 -0.0070845056
0001b0 b2 ff c3 3a e3 c6 5b bb db fb 36 bc 55 4c 89 bb
       0.0014953522 -0.0033535294 -0.011168445 -0.0041900077
0001c0 89 88 9b bb ab 11 e1 3b 94 cd f0 39 03 7c c9 3b
       -0.004746501 0.0068685613 0.00045929535 0.0061488166
0001d0 71 3f 70 3b 37 5d f2 bb e6 c6 85 3b 90 c8 9a 3a
       0.0036658908 -0.007396366 0.0040825484 0.001180904
0001e0 cc 1a 62 ba 9d 57 cd 39 85 5f df 3a d2 f4 c6 ba
       -0.0008625209 0.00039165924 0.0017042017 -0.0015179163
0001f0 5f f2 0c b9 b2 1a d8 3a db 16 50 3b fc 97 df 3b
       -0.0001344173 0.0016487448 0.0031751904 0.006823538
000200 82 87 78 3c 6e b4 94 3b bc fe 26 3c 3c 5f 4e bc
       0.015169026 0.0045381105 0.010192569 -0.012595948
000210 89 c1 0b 3c 35 34 4f bc 8b c4 87 bb 17 9c ce 3a
       0.008530029 -0.0126467245 -0.004143303 0.0015763071
000220 01 8d d7 39 0c 48 44 3c 98 06 3c 3c 24 6e 5d 3b
       0.00041113052 0.011980068 0.011476181 0.0033787573
000230 89 a8 ed 3b f7 3c 18 3b 70 53 ad bb 73 46 10 bc
       0.007252757 0.0023229697 -0.0052894875 -0.008805859
000240 3a d1 45 bb 61 eb 41 3c f9 5f 3d bb ce ec 04 3c
       -0.0030184523 0.011835904 -0.0028896315 0.008113099
000250 6c eb b4 3b 89 01 0e bc ae ec 97 3c bb 5a 1e bc
       0.0055212285 -0.008667358 0.018545475 -0.0096651865
000260 5b aa c4 3b c3 87 9d 3b b2 72 c5 bb a9 49 27 ba
       0.0060017533 0.004807444 -0.0060256356 -0.00063815207
000270 ab 2a 43 3c 31 1e d0 b8 f9 b8 37 bb c4 65 56 bc
       0.011912028 -9.9238365e-05 -0.0028033836 -0.013085786
000280 bc 9b 09 3b 2e 07 58 3c 69 8d d8 bb 42 c5 52 3c
       0.0020997366 0.0131853055 -0.0066086543 0.012864413
000290 56 8c 85 b9 03 16 dc 38 c7 61 60 bc 95 c4 c6 3a
       -0.00025472295 0.000104945175 -0.013695187 0.0015164787
0002a0 a2 69 e1 3a 4c ca ea ba 04 10 aa bb 3a f5 a7 bb
       0.0017197619 -0.0017913072 -0.0051898975 -0.005125669
0002b0 c5 11 19 bc c8 be ba 3b 7f 3d 6f bc 9b 73 87 bc
       -0.0093426155 0.0056990124 -0.014602064 -0.016534617
0002c0 97 01 87 3a 46 fe 97 ba 79 c3 12 3c 8e a5 9a 3c
       0.0010300156 -0.0011596165 0.008957737 0.01887777
0002d0 18 7e b5 b9 d3 52 24 3b 34 79 ab bb 70 e6 1e 3c
       -0.00034616957 0.002507378 -0.0052329544 0.009698495
0002e0 3a 7a 3f bc 1f 3b 91 b9 bb d5 d7 bb a9 c5 93 bb
       -0.011686856 -0.00027700604 -0.006586758 -0.004509647
0002f0 61 da 7a 3a c2 69 1d bb e5 9d 70 bc 6c cc 44 3c
       0.0009569284 -0.0024019335 -0.0146860825 0.012011629
000300 7e 5d df 3b 29 12 46 3c 5a f1 e8 3b f6 85 e2 bb
       0.006816565 0.012089291 0.0071088495 -0.006912942
000310 8f 41 51 3c c8 69 fe 3b 61 c5 cb 3c b2 40 fa 3b
       0.012771978 0.007764075 0.024874391 0.007637107
000320 1b 6a b7 3b 72 8d 00 3c 38 1c 6f 3c 4f 67 0d 3c
       0.0055973656 0.007846223 0.01459413 0.008630588
000330 8f fa 80 bc 7c f1 6d bb c9 e6 5d 3b a9 6b a9 3b
       -0.015744476 -0.0036307266 0.0033859483 0.005170305
000340 6f 11 6a ba 86 6d 7b bc 9b 5e 84 3b cc 5c 76 3a
       -0.00089289894 -0.015345937 0.004039598 0.0009397983
000350 4c da 11 3b db 74 aa 3c 36 77 07 3b 6a de 78 39
       0.002225536 0.020807674 0.002067042 0.00023733979
000360 f4 5c 40 3c 84 de ad ba fd b7 60 bb 81 e1 05 3b
       0.011740912 -0.0013265167 -0.0034289353 0.00204286
000370 42 70 83 3c 45 3f 98 3b 68 ae 14 bc 18 f7 b4 3b
       0.01604474 0.004646214 -0.009074785 0.00552262
000380 a6 cf 8f 3a 88 76 14 bc 5b db 94 bb a3 6b 95 bc
       0.0010971918 -0.009061463 -0.004542751 -0.018239802
000390 71 5b 6d 3a a2 90 3c 3c 90 fd 16 bb 55 ee 3c 3c
       0.00090544584 0.0115090925 -0.0023039319 0.011531432
0003a0 9a d0 4f bb a1 af 28 3b d9 a4 59 3b 46 78 a9 bc
       -0.003171003 0.0025739449 0.003320983 -0.020687234
0003b0 13 56 e5 bb 4d 09 6d 3c 93 c6 67 bc 0e 84 cd 3c
       -0.0069987862 0.0144675495 -0.014146465 0.025087383
0003c0 86 42 64 3c ae a8 1b bb 24 a1 64 bb 1e da df bb
       0.013931876 -0.0023751664 -0.0034886086 -0.0068314215
0003d0 65 5b 2f ba dc 11 46 bb 98 7a d8 3b 92 57 3e 3b
       -0.0006689339 -0.0030223047 0.006606411 0.0029043895
0003e0 e7 ca 41 bb 48 6f 45 3a 0e 52 94 3b 81 5d 48 bb
       -0.0029570402 0.0007531536 0.0045263832 -0.003057331
0003f0 f0 3f b0 3b bd 61 f7 3b c3 54 99 bc 54 68 bf bc
       0.0053787157 0.007549493 -0.018717175 -0.023365177
